action3.h5
[needs some tuning but seems good]
w/o preprocessing
Model: "sequential_25"
_________________________________________________________________
 Layer (type)                Output Shape              Param #   
=================================================================
 conv1d_44 (Conv1D)          (None, 28, 128)           99200     
                                                                 
 conv1d_45 (Conv1D)          (None, 26, 128)           49280     
                                                                 
 max_pooling1d_22 (MaxPoolin  (None, 8, 128)           0         
 g1D)                                                            
                                                                 
 dropout_43 (Dropout)        (None, 8, 128)            0         
                                                                 
 conv1d_46 (Conv1D)          (None, 6, 256)            98560     
                                                                 
 conv1d_47 (Conv1D)          (None, 4, 256)            196864    
                                                                 
 max_pooling1d_23 (MaxPoolin  (None, 1, 256)           0         
 g1D)                                                            
                                                                 
 dropout_44 (Dropout)        (None, 1, 256)            0         
                                                                 
 bidirectional_23 (Bidirecti  (None, 1, 1024)          3149824   
 onal)                                                           
                                                                 
 bidirectional_24 (Bidirecti  (None, 512)              2623488   
 onal)                                                           
                                                                 
 dense_63 (Dense)            (None, 256)               131328    
                                                                 
 dropout_45 (Dropout)        (None, 256)               0         
                                                                 
 dense_64 (Dense)            (None, 128)               32896     
                                                                 
 dense_65 (Dense)            (None, 6)                 774       
                                                                 
=================================================================
Total params: 6,382,214
Trainable params: 6,382,214
Non-trainable params: 0
_________________________________________________________________

model = Sequential()
model.add(Conv1D(128, 3, activation='relu', input_shape=(30, 258)))
model.add(Conv1D(128, 3, activation='relu'))
…
model.add(Dropout(0.2))
model.add(Dense(128, activation='relu'))
model.add(Dense(actions.shape[0], activation='softmax'))

||||||||||||||||||||||||||||||||||||||||||||||||||||||||||||||||||||||||||||||||||||||||||||||||||||||||
--------------------------------------------------------------------------------------------------------

action2.h5
w/o preprocessing
Model: "sequential_20"
_________________________________________________________________
 Layer (type)                Output Shape              Param #   
=================================================================
 conv1d_24 (Conv1D)          (None, 28, 64)            49600     
                                                                 
 conv1d_25 (Conv1D)          (None, 26, 64)            12352     
                                                                 
 max_pooling1d_12 (MaxPoolin  (None, 8, 64)            0         
 g1D)                                                            
                                                                 
 dropout_28 (Dropout)        (None, 8, 64)             0         
                                                                 
 conv1d_26 (Conv1D)          (None, 6, 128)            24704     
                                                                 
 conv1d_27 (Conv1D)          (None, 4, 128)            49280     
                                                                 
 max_pooling1d_13 (MaxPoolin  (None, 1, 128)           0         
 g1D)                                                            
                                                                 
 dropout_29 (Dropout)        (None, 1, 128)            0         
                                                                 
 lstm_50 (LSTM)              (None, 1, 128)            131584    
                                                                 
 lstm_51 (LSTM)              (None, 1, 128)            131584    
                                                                 
 lstm_52 (LSTM)              (None, 64)                49408     
                                                                 
 dense_48 (Dense)            (None, 128)               8320      
                                                                 
 dropout_30 (Dropout)        (None, 128)               0         
                                                                 
 dense_49 (Dense)            (None, 64)                8256      
                                                                 
 dense_50 (Dense)            (None, 6)                 390       
                                                                 
=================================================================
Total params: 465,478
Trainable params: 465,478
Non-trainable params: 0
_________________________________________________________________

model = Sequential()
model.add(Conv1D(64, 3, activation='relu', input_shape=(30, 258)))
model.add(Conv1D(64, 3, activation='relu'))
…
||||||||||||||||||||||||||||||||||||||||||||||||||||||||||||||||||||||||||||||||||||||||||||||||||||||||
--------------------------------------------------------------------------------------------------------

action1.h5
w/o any pre-processing of data
actions = np.array(['goodbye', 'hi', 'you', 'me', 'thankyou', 'goodmorning'])
Epoch 84/500
15/15 [==============================] - 4s 268ms/step - loss: 0.2804 - categorical_accuracy: 0.8796
Model: "sequential_9"
_________________________________________________________________
 Layer (type)                Output Shape              Param #   
=================================================================
 bidirectional (Bidirectiona  (None, 30, 128)          165376    
 l)                                                              
                                                                 
 bidirectional_1 (Bidirectio  (None, 30, 256)          263168    
 nal)                                                            
                                                                 
 bidirectional_2 (Bidirectio  (None, 128)              164352    
 nal)                                                            
                                                                 
 dense_24 (Dense)            (None, 64)                8256      
                                                                 
 dense_25 (Dense)            (None, 32)                2080      
                                                                 
 dense_26 (Dense)            (None, 6)                 198       
                                                                 
=================================================================
Total params: 603,430
Trainable params: 603,430
Non-trainable params: 0
_________________________________________________________________

model = Sequential()
model.add(Bidirectional(LSTM(64, return_sequences=True, activation='relu'), input_shape=(30, 258)))
model.add(Bidirectional(LSTM(128, return_sequences=True, activation='relu')))
…
       [[73,  4],
        [ 3, 20]],

       [[81,  2],
        [ 4, 13]],

       [[83,  2],
        [ 1, 14]]])

||||||||||||||||||||||||||||||||||||||||||||||||||||||||||||||||||||||||||||||||||||||||||||||||||||||||
--------------------------------------------------------------------------------------------------------
action.h5
w/o any pre-processing of data
Model: "sequential"
_________________________________________________________________
 Layer (type)                Output Shape              Param #   
=================================================================
 lstm (LSTM)                 (None, 30, 64)            82688     
                                                                 
 lstm_1 (LSTM)               (None, 30, 128)           98816     
                                                                 
 lstm_2 (LSTM)               (None, 64)                49408     
                                                                 
 dense (Dense)               (None, 64)                4160      
                                                                 
 dense_1 (Dense)             (None, 32)                2080      
                                                                 
 dense_2 (Dense)             (None, 6)                 198       
                                                                 
=================================================================
Total params: 237,350
Trainable params: 237,350
Non-trainable params: 0
_________________________________________________________________
model = Sequential()
model.add(LSTM(64, return_sequences=True, activation='relu'), input_shape=(30, 258))
model.add(LSTM(128, return_sequences=True, activation='relu'))
…
